head.pth (torch, 546744 bytes, 4 tensors)

fc.0.weight f4 [256, 512]
000000 ef 7b 3b 3d 0e 19 b2 bc 84 53 92 3d 56 4a cd bc
       0.04577249 -0.021740463 0.071448356 -0.02505986
000010 98 a0 bd ba 1e 4e 84 3b 18 20 8d 3c 7b d2 a7 3c
       -0.0014467416 0.0040376326 0.017227218 0.020486107
000020 3a 02 29 3d a9 dd 2a 3d 0f 01 90 bd 34 a5 a3 3d
       0.04126189 0.041715298 -0.07031452 0.07990494
000030 b0 92 c2 bc 8d 28 88 bd 79 92 19 3d e9 db 4b bd
       -0.023751587 -0.066483594 0.037493203 -0.04977027
000040 21 0e f0 bc e1 2c 86 ba e7 4a 1f bd 35 9c 8b 3c
       -0.029303612 -0.0010236764 -0.03888979 0.017042259
000050 88 2e 8e bc 91 e3 37 bd 4b 04 23 bd 92 9b 28 ba
       -0.017356172 -0.04489476 -0.039799016 -0.0006431873
000060 aa 08 8a bd e5 a0 9e bc ee 09 d0 3c a1 a9 35 3d
       -0.06739934 -0.01936383 0.02539536 0.044351224
000070 4e 60 0b 3d 9d a2 bf bc 5d 59 da 3c 7f 2b 57 3d
       0.03402739 -0.02339297 0.02665394 0.052531715
000080 c4 1e 64 bd 02 f5 ab 3d 34 9f 68 3c ee 8a d6 3d
       -0.055693403 0.08396341 0.014198113 0.104757175
000090 75 ee 35 3d 41 41 c2 3d 28 0e 96 3c 72 06 2d bc
       0.044416863 0.094851024 0.018317297 -0.010560619
0000a0 fc e1 bf ba b8 54 e7 3d 3c 29 82 bd c9 e0 3d bd
       -0.0014639492 0.11295456 -0.06355521 -0.04635695
0000b0 93 9d 05 be 80 f4 a2 bc d3 b8 8d 3c 54 cf ab bd
       -0.13048391 -0.019891977 0.017300045 -0.08389154
0000c0 ea 2e 4a 3d e6 70 ba 3c c0 c2 ef bc 76 a4 d3 bd
       0.049361147 0.022758912 -0.029267669 -0.10334103
0000d0 39 54 9f 3d 0b 84 af bd 7d 41 b4 bd 0e 8f 66 bd
       0.07779736 -0.08570107 -0.088015534 -0.05628877
0000e0 3c 3d b8 bd 89 46 aa 3d 93 a1 5d bd da 38 c7 3d
       -0.089960545 0.08314235 -0.054109167 0.097276405
0000f0 c3 e9 3b bd f8 7c b4 bd 18 1b 08 3d 2c a4 9d 3d
       -0.04587723 -0.088128984 0.033228964 0.07697329
000100 8c c1 eb 3c ed e3 15 bb 52 80 28 3d 74 f4 a3 bd
       0.028778814 -0.002287145 0.041138 -0.0800561
000110 38 e5 62 bd 88 c3 7c bd 12 6d 0e bb 7a 2c 54 bc
       -0.05539438 -0.06170991 -0.0021732491 -0.012950057
000120 9a f2 d5 bd 62 2f 8b bd 80 bc be bd bd 05 a4 bc
       -0.10446663 -0.06796147 -0.09313297 -0.020022267
000130 c6 c6 8a bd a7 70 6a 3d d3 29 d3 bc 9f c3 b4 3c
       -0.06776194 0.05723634 -0.02577678 0.022065936
000140 75 47 15 3e c5 69 20 3d 57 27 88 3b 08 b7 40 3c
       0.1457804 0.03916337 0.0041550803 0.011762388
000150 b3 38 be bd 56 8a 61 3d be fb f7 3d 01 e8 f5 3d
       -0.09288158 0.055063568 0.12108563 0.12007142
000160 79 86 da bd 0f b1 1e 3d 96 69 e0 bc c1 b5 d6 3b
       -0.1067018 0.038743075 -0.027394097 0.0065524285
000170 ba fc 19 3b c2 ac 91 3b 95 cc 04 3e 01 52 cb bd
       0.0023496584 0.004445643 0.12968667 -0.099277504
000180 71 11 80 bd 7f 0d f7 3c 83 d3 a1 3d 24 6b bd 3c
       -0.06253327 0.030157803 0.07901671 0.023122378
000190 e6 be c1 3b 00 4f ff bd 52 d8 8c bd ff 73 26 3e
       0.0059126494 -0.1246624 -0.06877197 0.16255186
0001a0 4e 21 ec 3c 0d d6 cd 3c 33 ba 73 bd af 24 3d bd
       0.028824475 0.025126481 -0.059503745 -0.046177562
0001b0 6f 98 fe 3c fd 7a 0e be b7 9e e3 bc 8e a0 0f be
       0.031078545 -0.13914104 -0.027785642 -0.1402609
0001c0 af b5 a2 bd 6f e5 c1 bd f0 2b 88 3d 16 05 4b bd
       -0.0794481 -0.09467589 0.066490054 -0.049565397
0001d0 3c 04 f3 bc ea aa fd bc f4 5a a5 3d 4e cc e2 bc
       -0.029665105 -0.030965287 0.080739886 -0.02768531
0001e0 8d e8 42 3d da 1c 0c 3c 2e 67 0f 3c 1b e8 e5 bd
       0.04758506 0.008551801 0.008752627 -0.11225911
0001f0 08 19 03 be 72 e7 3c 3c 14 ff a9 39 18 ef 4b 3d
       -0.12802517 0.01152979 0.0003242424 0.049788564
000200 10 38 93 3d cb be 0d bd 98 98 ee bd 07 84 d7 bd
       0.071884274 -0.034605782 -0.11650199 -0.10523229
000210 8c dd 79 3d d7 88 02 3d ae 02 3e bd 41 9c af ba
       0.0610023 0.031868782 -0.046389274 -0.0013398008
000220 e6 5d 5f 3d a4 01 93 3d 36 95 99 3b 97 49 6c 3c
       0.054532908 0.07178047 0.004686977 0.014421842
000230 b7 ff 82 bd aa 53 8f bd 47 c9 12 be 3f 7b 9b 3d
       -0.0639643 -0.069983795 -0.14334594 0.07591867
000240 83 0f 12 bc 28 73 f4 3c 0e 85 d6 bb c6 18 0b 3d
       -0.008914831 0.029840067 -0.006546623 0.033959173
000250 6e 73 d5 bd e5 e0 85 bd 3b 5e 1c bd 76 e5 91 bd
       -0.10422407 -0.06537036 -0.038175803 -0.07123844
000260 ab 66 76 3d b2 a7 4f ba 51 85 b3 3a 82 ec 9c 3d
       0.060156506 -0.0007921412 0.0013696348 0.07662298
000270 48 93 52 3d 10 9d 52 3d 87 de b6 3d 4e 20 71 bd
       0.05140999 0.051419318 0.089291625 -0.0588687
000280 68 b7 87 bd f4 bb 6a bb a2 e6 64 3d a8 61 84 3d
       -0.06626779 -0.0035817595 0.05588401 0.06463939
000290 ae fd 7b 3d a1 3c a0 3d 0d c2 3c 3d 6b eb e7 3d
       0.061521225 0.07824064 0.0460835 0.11324199
0002a0 7a e1 22 3c 79 7e e1 bd 9e 2e b0 3c 69 c7 9f bd
       0.009941453 -0.11010451 0.021506604 -0.07801706
0002b0 41 5e ae bd b4 bb 86 bc a8 a8 17 bd 80 54 cd b9
       -0.08514071 -0.016446926 -0.037026078 -0.00039163604
0002c0 a6 74 4b bd b1 04 da 3d 11 03 ef 3c 70 61 4c 3d
       -0.04967179 0.10645426 0.029176267 0.04989761
0002d0 25 ac a9 3c dc f1 92 bd 92 ec 8d 3c 70 6d 0d 3e
       0.020711968 -0.07175037 0.01732472 0.13811278
0002e0 c2 1d 37 3d de 4b a4 3d 6c e6 4b 3d 24 57 05 3c
       0.044706114 0.08022283 0.049780294 0.008138452
0002f0 7c 93 b2 bd cd 53 04 3e ab 6e 3b 3d 6c 13 f9 3c
       -0.08719537 0.12922592 0.045759838 0.030404769
000300 5b 73 bb bc ae b0 02 3d fb 6f 01 bd 0c 6d 5a 3e
       -0.022882154 0.031906776 -0.031600934 0.2133066
000310 82 05 1d 3d 16 a3 be bd 68 7e 3f bc 0d d6 28 3d
       0.03833533 -0.0930845 -0.011687852 0.04121976
000320 c2 3f 95 bd 53 fc 0f bd 1d d4 a9 3d 05 32 be 3d
       -0.072875515 -0.035152745 0.082924105 0.09286884
000330 16 fc 1d 3e 42 00 ab bd fb 48 49 bc 87 3b 3b bd
       0.15428194 -0.083496585 -0.012285466 -0.045711067
000340 fe d2 31 bc f8 02 20 bd cd 44 4a bc 7b 15 db 3c
       -0.010853527 -0.03906533 -0.012345505 0.026743641
000350 be 60 07 be 13 11 d9 bc fc 4f 83 bc 77 d3 33 3d
       -0.13220498 -0.0264974 -0.01602935 0.04390284
000360 d7 51 d5 bc de 39 52 bd 03 89 d4 3d 1a 6d 3f 3c
       -0.02604 -0.051324718 0.103776954 0.011683727
000370 5c 46 53 3d cc 3e c0 ba 8f 0a 1f be 99 31 79 3b
       0.05158077 -0.0014667152 -0.15531372 0.0038023947
000380 9a 1b 84 3d 90 ea 18 3c fc 73 4b bd 9e 4d 81 bc
       0.06450577 0.009333268 -0.04967116 -0.015784081
000390 6a 85 34 bc 29 b9 09 3d 94 73 a9 3d b4 cd 20 bd
       -0.0110181365 0.033623848 0.08273998 -0.039258674
0003a0 6d ad 53 bd e3 50 88 3d ed 9f 36 3d 25 9f 2c bc
       -0.051679064 0.06656053 0.04458611 -0.01053599
0003b0 fd 71 5d bc 44 8b 5f 3c 13 92 c9 3c 61 07 00 3e
       -0.013515946 0.013644043 0.024605786 0.12502815
0003c0 3a 4b 85 bb 28 58 28 bd b2 27 50 3d 01 a2 39 bd
       -0.0040678056 -0.041099697 0.050819106 -0.045320515
0003d0 d0 f7 6f 3b 0f e7 8c 3d ae 2e cf 3c 32 f0 41 3c
       0.0036616214 0.068800084 0.025290813 0.011837052
0003e0 d3 70 9f 3c 53 7e ce 3c d2 a0 35 3c 8d a1 ae 3d
       0.019462978 0.02520672 0.011085706 0.08526907
0003f0 ea 08 cf 3d 82 7f 46 bd 60 97 43 3c 45 7a 59 bd
       0.10109122 -0.048461445 0.011937946 -0.05309512

fc.0.bias f4 [256]
000000 af 65 11 3c f1 7c b8 bc 54 84 ea bc 2c f8 f5 bc
       0.008874341 -0.022520514 -0.028627552 -0.030025564
000010 26 bf 86 bc be 9e d6 bc b7 d3 f5 3c 05 fa 3e bc
       -0.016448569 -0.026198741 0.03000818 -0.011656289
000020 ab 4c 35 bc 18 da 04 3d fc 9e 70 bc fe ff b7 3c
       -0.011065642 0.032434553 -0.014686342 0.022460934
000030 b1 74 72 3d a5 65 75 bc ca 23 75 3b db fc 1a bc
       0.059193317 -0.014977847 0.0037405365 -0.0094596995
000040 c8 61 d7 bb 20 7b 0d 3d 41 cb 30 3d 29 07 4f 3c
       -0.0065729357 0.03454125 0.043162588 0.012635984
000050 4a 87 14 3d ab 15 07 3d 9b 6c 9f bc 32 84 a6 3c
       0.036261834 0.03297965 -0.019460967 0.020326708
000060 9b b2 06 3c 6a ec e4 39 d9 7c 24 3d b8 c1 91 3c
       0.008221294 0.0004366369 0.040158127 0.017792568
000070 ea 7c 08 3d ea b7 ff bc 22 0e 4c bc a7 e9 d0 3b
       0.033322252 -0.031215627 -0.012454541 0.00637551
000080 ea 73 36 3d 59 bd 33 bd 82 bf 0f bc fb 7a a1 3b
       0.044544138 -0.043881748 -0.008773686 0.0049279905
000090 d6 b1 b3 ba 37 bd 89 bb e0 f3 d8 3c 0e a0 30 3d
       -0.0013709615 -0.0042034644 0.026483476 0.04312139
0000a0 1a f9 20 bc 65 3a e9 bb 68 d6 3d bd 6a 9c 25 bc
       -0.009825015 -0.007117557 -0.04634705 -0.010108093
0000b0 d4 a5 fc bb a6 01 eb bc c1 ed 18 3d be 5d e6 3c
       -0.007710198 -0.02868731 0.037336115 0.028120872
0000c0 49 c2 0e 3d b8 e7 0b bd 85 80 e8 3b bd dd 49 3d
       0.034853254 -0.03415653 0.007095399 0.04928373
0000d0 ab c9 ab bc 6a c8 84 bb b9 cc ea 3c 93 a3 22 3d
       -0.020970186 -0.0040522115 0.028662072 0.039706778
0000e0 73 f7 0a 3d 8a 78 98 bb 03 4d 2a 3d 54 c7 2b 3d
       0.033927392 -0.0046530413 0.04157735 0.04193814
0000f0 ac af f0 3c fc 6c c8 bc b2 84 24 bb 06 b7 fa bc
       0.029380642 -0.02446603 -0.0025103507 -0.03060485
000100 7c c3 bc bc 24 1d 27 3d 11 45 5d 3d ba d7 d4 3a
       -0.023042433 0.040799275 0.054020945 0.0016238608
000110 7d e0 3b bc af 9a b5 bb bc c4 5b 3d b9 0a 9c 3c
       -0.011467096 -0.0055421214 0.053654417 0.019048082
000120 39 f6 75 3d fe 9d 1f 3c 14 f9 c5 bb 78 7d bf bc
       0.06004927 0.009742258 -0.0060416553 -0.023375258
000130 a6 44 6d bc 2f fa c1 3c 23 6b 64 bb 5d 0e 00 3c
       -0.014481699 0.023678867 -0.0034853898 0.0078159245
000140 6d 07 b0 3b 36 40 48 bc b8 7b e4 bb e0 07 e1 ba
       0.005371979 -0.01222234 -0.0069727562 -0.0017168485
000150 6b be be 3c 11 e7 06 3a 60 b0 39 3c 4d f9 06 bb
       0.023284158 0.0005146126 0.011333555 -0.0020595372
000160 5f c8 af 3c fc 8d d0 3c 45 6e c9 3b 2a fd 7c 3c
       0.02145785 0.025458328 0.0061471784 0.015441218
000170 b2 f1 96 ba b4 5a 73 3c 37 a0 87 3d ac d0 fa 3c
       -0.0011516123 0.014853168 0.066223554 0.03061708
000180 81 78 ab 3c d8 94 16 bc df 6c 07 bc f4 ca 36 3c
       0.020931484 -0.009190761 -0.008265703 0.011156786
000190 4e cf 15 3d e7 39 12 3d f3 bc cf bc d5 a5 69 bc
       0.036574654 0.03569975 -0.025358653 -0.014260729
0001a0 90 f7 38 3d 41 9a 98 3c ca d1 15 3d db a5 e7 bc
       0.04515797 0.018628241 0.036577024 -0.028277328
0001b0 39 b0 dc bb ba 0a 5b 3d a8 c8 0d 3d 74 1d 3b bd
       -0.0067348746 0.053477027 0.03461519 -0.045682386
0001c0 1c 92 61 3c 24 29 d9 3c 4a 7b f8 3c 4e 8e 9a bc
       0.013767745 0.026508875 0.030332226 -0.018866684
0001d0 da f7 2a 3c d6 65 49 3d 6a 41 a0 3c f9 ca 8f 3c
       0.010435069 0.049169384 0.019562442 0.01755284
0001e0 e2 64 68 bc 02 ee 1a bd 70 5b 61 3d 2b 0d cd 3c
       -0.014184209 -0.03782464 0.055018842 0.025030693
0001f0 74 94 2e 3d 5d fa 34 3d 31 c9 1b 3d 6b f0 24 bc
       0.042622045 0.044184078 0.038033668 -0.010067086
000200 a5 e7 e9 ba a6 a4 a4 bc 41 b7 4b 3d aa c2 86 bc
       -0.0017845525 -0.020098042 0.04973531 -0.016450245
000210 5c f0 af bc 93 50 eb 3c f2 f4 0a 3c 5b 5b b5 bc
       -0.021476917 0.028724944 0.008481251 -0.022138288
000220 d8 42 cf bb f1 8f 81 bc ae 38 55 bb b6 a7 16 3d
       -0.006325107 -0.015815707 -0.0032535004 0.036781035
000230 13 8a 0a 3d 8a dd 4d 3c 72 9e 24 3d c3 81 20 bd
       0.033823084 0.012565026 0.040190168 -0.03918625
000240 17 01 ce bb 8b 42 ce 3c 04 b7 d5 3c 11 9a ee 3c
       -0.006286751 0.025178215 0.026088245 0.029126199
000250 43 87 25 3c fe 17 85 bc 02 9a 31 3d fb 35 c6 bc
       0.01010305 -0.016246792 0.043359764 -0.024195662
000260 ea a0 ef 3b 6d 41 e0 3a ce 6f 76 3c df b0 03 bd
       0.0073128836 0.0017109342 0.015041305 -0.0321511
000270 c1 9c 32 bd 5c 28 08 bd 69 43 07 3d 27 ad 80 bc
       -0.043606523 -0.033241615 0.03302327 -0.015707565
000280 0d 1c 02 bd 97 09 36 3d 88 05 af 3c a5 2d 21 3d
       -0.031765033 0.04444274 0.021364942 0.03935017
000290 b6 47 e5 3a eb fd 48 3d 0e 00 62 3d 9f 8b 90 bc
       0.0017492685 0.04907028 0.055175833 -0.017644702
0002a0 36 3a 4f 3d 16 5e 2e 3d 7a c2 94 3a 8c 1d 0e bc
       0.050592624 0.042570196 0.0011349462 -0.008674037
0002b0 c0 24 99 bb 61 be 2c 3d a9 a8 51 3c 14 78 37 bc
       -0.0046735704 0.042173747 0.012796559 -0.011198062
0002c0 4a ec 22 ba 31 92 dc ba b9 cc cf bc 5c ec 94 3c
       -0.00062150194 -0.0016828236 -0.025366174 0.018179111
0002d0 7d 73 49 bd 9c 4b 55 3c 79 f5 f0 3c b9 da bd bc
       -0.049182404 0.013018515 0.029413925 -0.023175584
0002e0 58 1f a3 3b 03 68 4c 3d 16 a6 10 bd 38 12 4e bc
       0.0049781017 0.04990388 -0.035314642 -0.012577586
0002f0 00 6e a1 3c 57 66 5c 3d 40 b3 4c bc 1b 9d ae 3c
       0.019705772 0.053808536 -0.012493908 0.021315148
000300 d4 0d 3b 3d f3 f6 0e 3c 16 9f ab bb 1c 68 30 3d
       0.045667484 0.0087258695 -0.0052374704 0.043068036
000310 eb af 96 3b c4 42 16 bb 8e c8 6c 3b e3 00 a6 bb
       0.004598608 -0.002292798 0.0036130282 -0.0050660237
000320 d4 35 35 3d 5f 33 25 3c ad 05 f4 3c 08 43 2a 3c
       0.044240788 0.010083049 0.029787863 0.010391958
000330 c2 dd bb bc 0d c2 08 3d f0 e5 5b 3c 9d 19 f1 3c
       -0.02293289 0.033388186 0.013421521 0.029431159
000340 18 29 7f bb a7 a4 46 3d 46 ff 15 bd 1f 67 0a 3c
       -0.0038934406 0.04849687 -0.0366204 0.008447438
000350 52 51 8c bc 23 2e b2 3c 7d a5 93 bc 05 cc f5 3c
       -0.01712862 0.021750515 -0.018023247 0.03000451
000360 e9 fd 96 bb 10 a7 94 3a 99 b0 69 3b ce df 75 3d
       -0.004607905 0.0011341292 0.003565824 0.06002789
000370 11 b0 b9 3b 7c ad ac 3c 52 1b e8 3c ff b5 83 3a
       0.0056667407 0.021078818 0.02833334 0.0010048746
000380 c3 ff 8c 3c 3b bc ab bc f0 ea 04 bb 85 06 43 bc
       0.0172118 -0.020963779 -0.0020281635 -0.01190341
000390 12 55 48 3d 63 55 cf bc bb 6f c2 bc c2 fe 26 3d
       0.048909254 -0.02530927 -0.023734918 0.0407703
0003a0 d4 b5 4f bd ec b7 8f 3d 5d c6 31 3c 88 cb 59 3c
       -0.050710514 0.07017502 0.010850516 0.013293155
0003b0 22 04 39 bd 2d a9 31 3d 77 2d 01 3d 33 af d1 bb
       -0.045169957 0.04337423 0.0315375 -0.006399059
0003c0 f0 cf c3 3c 89 90 ba 3c e4 cc fa 3c 49 27 33 bd
       0.023902863 0.022773998 0.030615278 -0.043738637
0003d0 76 e9 c3 bc cc 1a a4 3c 4d ed bb bc 93 3f 80 3c
       -0.023915034 0.020032309 -0.022940302 0.015655315
0003e0 6e a0 ec ba 2d 07 87 bc 1a 93 24 3d 4f 86 2c bc
       -0.0018053183 -0.016482914 0.04017935 -0.010530069
0003f0 57 c3 3d 3d 64 5d 70 3a 78 37 20 bd c4 d5 1e 3d
       0.04632887 0.000916919 -0.0391154 0.03877808

fc.2.weight f4 [19, 256]
000000 2b 0b 9d bc 4b df 14 bd 87 5e 89 bc 1d 67 e6 bd
       -0.019170364 -0.03634576 -0.016768707 -0.11250136
000010 e4 d6 12 bd 5e c8 2f 3d e2 cd a4 bc ed 73 71 3d
       -0.035849467 0.042915694 -0.020117704 0.058948446
000020 db 0d 47 3d 03 fd 7b bd ef f9 d8 bc a6 6b ec bc
       0.048597198 -0.061520588 -0.026486365 -0.028859925
000030 a5 58 54 3d 25 e3 b2 bd 90 7e 6d 3d 54 79 60 3d
       0.05184235 -0.08734731 0.057982028 0.054803208
000040 f7 fc 4a bd 98 82 91 bc 24 fb 2a bb f9 9d 11 3e
       -0.049557652 -0.017762467 -0.0026089633 0.14220418
000050 4c ee 7e bd cf 8f 2a 3c 78 32 29 bd df b8 ba 3c
       -0.062238976 0.010410263 -0.041307896 0.022793232
000060 34 20 f1 bb da 8e 93 3b 8d 0d f9 bc 4f ee c0 3d
       -0.0073585752 0.004503113 -0.03040197 0.09420454
000070 35 70 84 3d 1f fc 5d bd e7 7e 91 bd 25 ef bd 3d
       0.06466714 -0.05419552 -0.07104283 0.09274129
000080 c0 bd 41 3d e7 28 01 3d a1 75 7d bc 1f ac 65 3d
       0.0473001 0.03153315 -0.015469939 0.05607235
000090 56 f1 a5 3d c2 d1 db 3b 3c d2 23 bd 8c 72 89 3d
       0.08102672 0.0067083547 -0.039995417 0.06711301
0000a0 e6 6a 6b bd b6 85 81 bb d5 46 08 3c d5 6b eb bc
       -0.057474993 -0.003952707 0.008317669 -0.028737942
0000b0 da 04 67 3c 07 60 3f 3d 70 c5 d3 b8 a5 1a 94 bd
       0.014100278 0.04672244 -0.0001009804 -0.072316445
0000c0 07 1b f2 bd 94 3e ee 3c 4b b5 61 bd 7e ca a7 3d
       -0.11821561 0.029082574 -0.055104535 0.08192919
0000d0 ed 16 ce bd 5a 93 d4 bc 4b 76 9c 3d 74 aa 4a be
       -0.100629665 -0.025949169 0.0763975 -0.19791585
0000e0 6a f2 2f 3d bc 67 d5 3c 44 b8 dc bc 27 63 1b bd
       0.042955793 0.026050441 -0.026943333 -0.037936356
0000f0 17 34 d3 3c a7 22 28 bc 82 ac 64 bc c5 0d 2b 3d
       0.025781674 -0.010262168 -0.013957145 0.04176118
000100 2d bb 86 bc 6d 04 ae 3d e9 ec 88 bd 81 cd 7d 3d
       -0.016446674 0.08496938 -0.06685812 0.061963562
000110 8d 45 6b ba be 6c ca 3d 61 63 33 bd de a1 51 bd
       -0.00089749024 0.09884022 -0.043795947 -0.05117976
000120 54 0d 40 bd 94 be df bc 6c 03 b8 bd 1e d8 d3 3c
       -0.04688771 -0.027312554 -0.08985028 0.025859889
000130 f1 ef a9 3d 7d dc 53 bd 2e 9a d8 bc a0 d8 2b bd
       0.08297718 -0.051723946 -0.026440706 -0.041954637
000140 9d 19 f1 3c 6d 0a ac bc 06 0b ba 3d f2 d6 75 3d
       0.029431159 -0.021001065 0.09084134 0.06001944
000150 d4 00 0a 3d e6 e7 67 3c f5 60 eb 3b 95 44 42 3d
       0.033692196 0.01415441 0.007183189 0.047428686
000160 10 d2 27 3d c7 13 b5 bb 6f 54 ff bc 53 c1 6c bd
       0.040971816 -0.0055260393 -0.03116819 -0.057801556
000170 3c 27 c2 bc e2 83 fa 39 aa e7 a0 3d 68 72 a3 3d
       -0.023700349 0.00047781976 0.078566864 0.07980806
000180 ba 65 f2 bd ee a2 90 3d 7a 6a 36 3d 9a f8 a9 3d
       -0.11835809 0.07062326 0.044535138 0.0829937
000190 5e cd c8 3c 25 ef 8e 3d 11 2b 87 bd d1 0f b3 39
       0.02451199 0.06979207 -0.06600011 0.00034153325
0001a0 18 24 10 bc 68 7f 53 bd dd 93 f5 bd 87 a3 4b 3d
       -0.008797668 -0.051635176 -0.11991093 0.0497165
0001b0 a2 86 7e bd 71 b2 23 3d f3 a9 7e bc 68 30 1b bd
       -0.062140115 0.039965097 -0.015543449 -0.03788796
0001c0 03 f0 7b 3d f2 a8 c1 3d 27 0e 0d bc a9 0b 96 bc
       0.06150819 0.09456052 -0.008609331 -0.018316107
0001d0 08 77 45 bd ff 46 23 ba c6 4c 4f 3c 0c c6 34 bc
       -0.04820922 -0.0006228536 0.012652582 -0.011033546
0001e0 aa 0c 11 3c 4d d7 c7 3c 66 a1 ac bb 32 59 f6 3b
       0.008853117 0.024394656 -0.0052682636 0.007517957
0001f0 fa 83 2b 3c 87 b2 9f bd d5 be 7e 3d 52 86 44 3d
       0.010468477 -0.07797723 0.06219371 0.04797966
000200 39 97 1e bd f3 ab 62 bc bb ba 60 bd d0 0c d1 3c
       -0.038718436 -0.013834941 -0.05486558 0.025518805
000210 21 1a a0 bd 5f 36 ea 3c d0 8e df 3b 60 3f 32 3d
       -0.07817484 0.02859038 0.0068224445 0.04351747
000220 ee 2b 39 3d c6 37 34 bd 0a 26 c3 bd 56 be 07 3d
       0.04520791 -0.043998502 -0.0952874 0.033140503
000230 d7 c1 b4 bc dc 2e f0 3c a1 da b9 3c 9f 14 44 bd
       -0.022065086 0.02931922 0.022687258 -0.04787123
000240 2b a3 e7 bc aa e5 fb 3d 16 5e 63 3b b8 0d 2d 3c
       -0.028276047 0.12299664 0.003469353 0.010562353
000250 26 c6 a6 3d f2 8c 70 3c e1 e8 93 3c 13 13 c9 3b
       0.081432626 0.0146820415 0.018055381 0.006136307
000260 69 fe 31 bd 3b 32 f2 bc a1 ab 47 bd 1a 4e 8d bd
       -0.043455515 -0.029564967 -0.048747662 -0.06899662
000270 70 88 3e bd 46 a3 1a 3c be f0 04 3d ac 4c b3 3d
       -0.046516836 0.0094383415 0.032456152 0.087548584
000280 79 31 7d 3c 72 0a ce 3c 17 70 90 3d 70 38 d5 bd
       0.01545369 0.025151465 0.070526294 -0.10411155
000290 a0 52 03 3c 7b fc a5 3d 5c 3c bd 3d 4a 9c 6c 3b
       0.008015305 0.081047975 0.09240028 0.0036103898
0002a0 bd eb c4 3c be 70 14 bd cf 09 aa 3d 28 e7 99 bd
       0.02403819 -0.03624033 0.08302652 -0.07514793
0002b0 60 76 a6 3d 52 92 82 3d 4e 54 8e 3d c5 1a 0d 3d
       0.08128047 0.06375565 0.069496736 0.034449358
0002c0 7e fc 71 3d 19 d3 41 bc eb fe b7 bd d9 2b b1 bd
       0.059078686 -0.011830115 -0.089841686 -0.086509414
0002d0 e2 89 2b 3d ab 4e 9f 3c 52 ec 7f bb 67 05 7a bd
       0.041879542 0.019446691 -0.003905077 -0.06104031
0002e0 0b ad 97 bd a9 34 b8 bd 46 48 6c bd fa 7f e6 3c
       -0.07406052 -0.08994419 -0.057686113 0.028137196
0002f0 74 38 cf 3b 1b 5a da 3d c0 99 89 3d b6 b8 69 bd
       0.0063238684 0.106617175 0.067187786 -0.05706092
000300 5a e7 b5 bd 20 b0 f2 bd 65 6d 78 bd 25 63 db 3c
       -0.088820174 -0.118499994 -0.0606512 0.026780674
000310 f5 a5 2c bd 18 11 31 be 85 86 82 3d 91 a5 a1 3d
       -0.042150456 -0.17291677 0.06373314 0.078929074
000320 97 68 0a bd 03 0a 30 3d 8e 64 ce bd 53 26 8f bd
       -0.03379115 0.042978298 -0.10077773 -0.06989732
000330 ce 42 e6 bb 9f 6c 3b bc f8 7a 80 3d ce 4f c9 bd
       -0.0070270067 -0.0114394715 0.062734544 -0.09829675
000340 6f df a4 3d 57 82 47 bd 29 04 45 3d c2 21 16 bc
       0.08050429 -0.048708286 0.04809967 -0.009163322
000350 3b 38 9f bc ab c0 54 3d 56 d6 8f bd eb 8b a3 3d
       -0.019435992 0.051941555 -0.07023303 0.079856716
000360 49 54 b7 bd 0f 49 c7 bd cc 35 27 bd ea 6b 8c 3d
       -0.08951623 -0.09730732 -0.04082279 0.068565205
000370 61 47 ae 3d ca 91 85 bd fa 5a 55 bd b5 ed fc 3c
       0.08509708 -0.06521948 -0.052088715 0.030875066
000380 7e cf a7 bc 84 28 2b bd 25 3e 10 3d 1d 6d be bd
       -0.020484682 -0.041786686 0.035215516 -0.092981555
000390 aa ca 49 bd 13 f2 11 3c 97 e0 98 bc f4 ab 21 3d
       -0.04926554 0.008907813 -0.01866178 0.039470628
0003a0 b6 98 3a bd b4 36 95 3d b4 ec da bc f4 d4 0b 3d
       -0.045555793 0.072858244 -0.026724197 0.034138635
0003b0 28 e1 1a 3c fc a6 34 3d 73 ee 5a bd c5 5c 14 3c
       0.0094530955 0.04410456 -0.05345006 0.009055321
0003c0 f1 38 2c 3c dc 4c e3 3d b2 7d e1 3c 63 b6 62 bd
       0.010511623 0.11098644 0.027525757 -0.05534972
0003d0 19 8a 14 3d 92 e2 38 3d d5 60 bc bd 42 22 92 3d
       0.036264513 0.04513795 -0.09198157 0.071354404
0003e0 f1 ca 80 bb dc d8 ab bd 9b d3 8c bd 17 bf 52 bc
       -0.0039304425 -0.08390972 -0.06876298 -0.012862942
0003f0 6e d9 e1 3d a0 9a 52 bc e0 9e a4 bc 34 0c 49 3c
       0.110277995 -0.012854248 -0.020095289 0.012270976

fc.2.bias f4 [19]
000000 6f 16 b9 bb 1d 49 7c bb e6 7c 11 bc 2f bc 52 bd
       -0.0056484262 -0.0038495727 -0.008879876 -0.051448997
000010 cb 2e 28 3d 78 c7 28 3d 02 60 f7 3c 5b 00 5e 3d
       0.04106025 0.041205853 0.030197147 0.054199558
000020 68 65 14 3c 26 7a 4f 3d 20 15 87 3a 44 ae 23 3d
       0.00905738 0.0506536 0.0010305978 0.039961115
000030 1c 0c cb bc 48 a2 65 3d a0 bd 01 bd 46 01 c0 bc
       -0.024786048 0.056062967 -0.03167498 -0.023438107
000040 5d d7 30 3d 15 98 6c bb e2 c4 a4 bc
       0.043174136 -0.003610139 -0.020113412
