head.pth (torch, 545720 bytes, 4 tensors)

fc.0.weight f4 [256, 512]
0.015292739 -0.011289081 0.017498681 -0.047428984 0.04532206 -0.057564687 0.019840037 0.06681429
0.08017811 0.063395135 -0.023500707 0.0029894053 -0.025994033 0.032658163 0.008652088 0.13525628
-0.03881603 0.03433742 0.08648005 0.032660946 -0.07688892 -0.046650555 0.028641345 -0.078706324
-0.085541785 0.050310858 0.047842626 0.028355654 0.013823037 0.102564335 -0.0909065 0.01898037
-0.06605185 -0.04637442 0.007653206 -0.04981443 -0.016643612 -0.010043342 -0.034394734 -0.03260863
-0.066463195 -0.01898596 -0.018532906 0.028192896 -0.04782671 0.04571934 -0.010312951 0.10971426
-0.02483194 0.07252032 0.08931532 0.04262521 0.07936095 -0.09972609 0.06480844 0.041519623
9.022189e-05 0.040077895 -0.0039515113 0.05910407 -0.035679143 0.022819199 0.0325482 0.037217908
-0.040212005 0.12283964 -0.019315965 -0.03331823 -0.0983009 -0.05188738 -0.087676965 -0.06759625
-0.043404385 0.09346452 0.039948016 0.026438937 -0.011690631 0.0539433 -0.040325053 0.081906416
0.0016719507 -0.06628175 -0.13615158 0.001522248 0.028519237 0.03791261 0.045993175 -0.126396
-0.02268628 -0.028964767 -0.033929076 -0.032140285 -0.03802993 0.035830755 -0.035586495 -0.046996526
-0.022684561 -0.081870705 0.01695278 -0.03999208 -0.030385569 -0.055325206 0.032807786 -0.004347
0.14045121 0.018947378 -0.053981546 0.024013951 -0.06576036 -0.11610971 0.038395632 -0.013365594
0.12416076 0.05053827 -0.062700614 -0.012480961 -0.06631021 0.03056445 -0.05110037 -0.107284896
-0.023879593 -0.034702864 -0.047153674 -0.028905991 0.0071402006 0.0015243067 0.09138536 0.05707461
-0.0845977 -0.013093241 -0.014316985 -0.013510263 0.030351276 -0.020915473 -0.016307732 0.011920782
-0.03560105 -0.017702028 0.012637023 -0.024956064 0.034684822 -0.0676208 -0.060399134 -0.02972317
-0.030761024 0.024738327 -0.04374088 0.046873957 -0.046884812 -0.0444212 0.10394041 0.017847601
0.057944007 0.019237742 -0.030651351 0.10880028 -0.065089196 -0.09169293 0.053109474 -0.094106555
0.0067411237 -0.0300338 -0.06134325 0.07417317 0.040075783 0.0043433392 -0.07930292 -0.036918238
-0.0007316873 0.053430565 0.0327661 -0.065573595 -0.053542867 0.023295945 -8.168615e-05 -0.008062244
-0.027702555 0.09606148 0.027903233 -0.09572676 -0.033631004 0.04934879 -0.07036005 0.08874721
-0.050827622 -0.04301597 -0.04977124 0.033059757 -0.05370209 0.04345476 -0.06093339 0.06285208
0.026103323 -0.0625034 0.11088873 0.038570482 -0.082427114 0.102071166 0.028831052 -0.015368225
-0.011699844 -0.013177476 0.06608824 -0.03252095 0.02660147 -0.046716526 -0.046319127 0.043980896
0.031171277 -0.026477542 0.053236406 0.05060899 -0.031294882 0.028316678 0.020983377 0.0659825
-0.10626999 -0.071674794 0.07239733 -0.063437775 0.031243976 -0.005169235 -0.011041027 0.15348797
0.013324838 0.05424414 -0.013465258 -0.09318489 -0.07893307 -0.03427837 0.03417853 -0.002781962
-0.058441777 -0.059549395 0.033558182 0.037773605 0.056834836 -0.1242164 -0.035682056 -0.015580695
-0.047269568 0.07124981 -0.024303118 -0.051049724 -0.030702097 -0.0013724194 -0.10635626 0.08556404
0.07889274 0.012098311 -0.07859434 0.0032537458 0.18946768 -0.048028138 0.0110743735 0.0030743873
00000000: 658e 7a3c d6f5 38bc 6559 8f3c e544 42bd
00000010: a0a3 393d f3c8 6bbd 9387 a23c eed5 883d
00000020: 6c34 a43d 4fd5 813d 8e84 c0bc e6e9 433b
00000030: 70f1 d4bc 91c4 053d 7dc1 0d3c 9f80 0a3e
00000040: 8ffd 1ebd 65a5 0c3d 741c b13d 7cc7 053d
00000050: f077 9dbd a714 3fbd 41a1 ea3c c830 a1bd
00000060: 8830 afbd c212 4e3d a1f6 433d 1e4a e83c
00000070: 057a 623c 400d d23d 302d babd b97c 9b3c
00000080: 3146 87bd 1bf3 3dbd bfc7 fa3b 370a 4cbd
00000090: 2f58 88bc d48c 24bc 7ee1 0cbd a090 05bd
000000a0: db1d 88bd 7288 9bbc 52d2 97bc caf4 e63c
000000b0: f1e5 43bd 3444 3b3d a7f7 28bc dfb1 e03d
000000c0: 5a6c cbbc 8985 943d f3ea b63d c697 2e3d
000000d0: fe87 a23d 313d ccbd 4aba 843d 7b10 2a3d
000000e0: 8235 bd38 b828 243d ae7b 81bb 1c17 723d
000000f0: 4b24 12bd 54ef ba3c 4351 053d ce71 183d
00000100: 58b5 24bd 5993 fb3d 843c 9ebc b278 08bd
00000110: fb51 c9bd dd87 54bd fb8f b3bd e76f 8abd
00000120: ccc8 31bd 546a bf3d 88a0 233d 7896 d83c
00000130: 0f8a 3fbc a6f3 5c3d e22b 25bd 8dbe a73d
00000140: 5b25 db3a babe 87bd 526b 0bbe 2b86 c73a
00000150: 2da1 e93c 414a 1b3d 5763 3c3d f46d 01be
00000160: 94d8 b9bc 8547 edbc 37f9 0abd 88a5 03bd
00000170: 46c5 1bbd 45c3 123d 25c3 11bd 6e7f 40bd
00000180: f9d4 b9bc d4ab a7bd 8ee0 8a3c bcce 23bd
00000190: 28eb f8bc af9c 62bd 7561 063d 4771 8ebb
000001a0: 71d2 0f3e 8837 9b3c c11b 5dbd e8b8 c43c
000001b0: 5ead 86bd edca edbd bd44 1d3d 5dfb 5abc
000001c0: ff47 fe3d 3801 4f3d 2e69 80bd f27c 4cbc
000001d0: a6cd 87bd 4c62 fa3c 9f4e 51bd 2fb8 dbbd
000001e0: 239f c3bc 9724 0ebd 3624 41bd 42cc ecbc
000001f0: 58f8 e93b 3fcb c73a 3f28 bb3d 11c7 693d
00000200: 8f41 adbd 0885 56bc ca91 6abc 265a 5dbc
00000210: 3da3 f83c ed56 abbc cb97 85bc 624f 433c
00000220: 68d2 11bd d803 91bc 840b 4f3c a970 ccbc
00000230: ac11 0e3d c67c 8abd 1565 77bd 017e f3bc
00000240: 8bfe fbbc 08a8 ca3c a329 33bd e8fe 3f3d
00000250: 4a0a 40bd 01f3 35bd b6de d43d 2235 923c
00000260: b256 6d3d 7898 9d3c 8b18 fbbc aed2 de3d
00000270: 7c4d 85bd 81c9 bbbd 5289 593d f0ba c0bd
00000280: a5e4 dc3b 7209 f6bc 0f43 7bbd 1ae8 973d
00000290: 8126 243d 9252 8e3b 9269 a2bd 9437 17bd
000002a0: b4ce 3fba 02da 5a3d bf35 063d 734b 86bd
000002b0: c44f 5bbd 23d7 be3c eb4e abb8 8117 04bc
000002c0: 78f0 e2bc e2bb c43d 5295 e43c 640c c4bd
000002d0: aac0 09bd f521 4a3d ee18 90bd 19c1 b53d
000002e0: a030 50bd 8431 30bd eedc 4bbd ab69 073d
000002f0: b9f6 5bbd 9efd 313d 4a95 79bd 97b8 803d
00000300: a3d6 d53c c801 80bd a119 e33d 15fc 1d3d
00000310: 8ccf a8bd b00a d13d 192f ec3c 02cb 7bbc
00000320: b4b0 3fbc 57e6 57bc 4559 873d b034 05bd
00000330: 53eb d93c d459 3fbd 20b9 3dbd 5025 343d
00000340: e85a ff3c 6ee7 d8bc 6b0e 5a3d 5f4b 4f3d
00000350: 102f 00bd 61f8 e73c 55e5 ab3c d521 873d
00000360: 15a4 d9bd 3cca 92bd 0d45 943d aaeb 81bd
00000370: 5ef3 ff3c b062 a9bb 6ce5 34bc f32b 1d3e
00000380: 6c50 5a3c 1a2f 5e3d 639d 5cbc b8d7 bebd
00000390: a9a7 a1bd 7a67 0cbd c9fe 0b3d 9451 36bb
000003a0: a560 6fbd 11ea 73bd 4e74 093d 7fb8 1a3d
000003b0: a5cb 683d 2b65 febd 5927 12bd 2c46 7fbc
000003c0: bc9d 41bd 6ceb 913d 5517 c7bc 8419 51bd
000003d0: f782 fbbc c1e2 b3ba 50d1 d9bd 333c af3d
000003e0: 8492 a13d ff37 463c 12f6 a0bd cc3c 553b
000003f0: d103 423e 27b9 44bd 4a71 353c a97b 493b

fc.0.bias f4 [256]
0.01512017 0.039468363 0.059117503 -0.0032507745 0.009782234 -0.028963508 0.051617727 0.0532293
0.07077948 0.041797485 0.017476175 0.023199223 -0.018667959 -0.0017654621 0.059372876 -0.020334207
-0.006196666 0.030972958 0.0137446895 0.043832224 0.009813963 0.0030641842 -0.009493443 0.0072483853
0.01123147 0.0326095 -0.011471556 0.044345148 -0.012711871 -0.0060436395 0.043348674 -0.04031373
0.014066721 -0.00024255413 0.021269454 -0.044658862 0.011666794 0.04316829 -0.009524618 0.01096762
0.054068316 -0.019388145 0.056334876 -0.056765854 0.022379084 0.019118179 -0.0063562314 0.039547868
0.024591472 -0.013685092 0.044151846 0.03225586 0.037207223 0.011277866 0.0052694357 -0.0077324994
-0.044014536 0.046734467 -0.006785686 0.041298747 -0.029589828 -0.03218007 -0.03054302 0.040883318
0.031653892 -0.030799827 0.037175536 -0.01856356 0.01610465 0.025849449 -0.012412285 0.0045695314
-0.024004426 0.03912805 0.003958118 0.01635838 0.0068286206 0.03222933 0.014739998 -0.0056712166
0.030505171 0.006802691 0.036329065 0.020794928 0.03142139 0.033991024 0.015874105 0.047195535
-0.029098514 -0.018955158 -0.019965176 -0.018531043 0.05320534 0.035714686 -0.012942663 -0.014110291
0.009435058 0.015573721 0.035453968 0.02234071 0.02325919 0.050927233 -0.002248248 -0.044133987
0.028781189 -0.03820397 -0.0014798574 -0.029878045 -0.0012098445 -0.05154431 0.0055233017 -0.015674643
-0.004223186 0.028740622 0.047102667 0.022477973 0.019620305 0.03244818 0.0026316594 0.030729985
0.05403711 -0.017514087 -0.007913565 0.05938286 0.02572084 0.02663258 0.052514937 -0.0038336993
0.025044426 0.013494651 -0.04723221 0.058409143 0.0092386305 0.017127808 -0.04823659 -0.006048758
0.05568932 0.016114762 0.05043331 0.06411499 -0.034414023 0.057492446 -0.025913024 0.051617038
-0.011407441 0.011396107 -0.010325947 0.004286333 -0.04299021 0.024525655 -0.0137202265 -0.0062790443
-0.03201914 0.03692816 -0.018449448 -0.039173137 0.018241245 0.024404123 -0.016344968 -0.014735212
0.03713089 -0.009036643 0.04364093 0.019522281 0.03282618 -0.043537065 -0.016905513 -0.027720427
0.058933415 0.008976059 0.032178342 0.039687213 -0.020058647 0.016119074 0.06492106 -0.015653692
-0.022886682 -0.0029094294 0.032368593 0.026896922 0.008500488 0.035168074 -0.030588243 -0.004097613
-0.05177575 -0.013658976 -0.00552879 0.027505368 0.025157988 0.030848606 0.046432443 0.06543549
-0.035671625 0.022477604 -0.01562206 -0.031095326 -0.01693312 0.029573629 -0.014998214 -0.026477726
-0.03635759 -0.027247742 0.061632413 0.028426975 0.03661329 -0.0003157984 0.0010099502 0.013364631
0.030941796 -0.02774771 0.017963951 0.024773693 -0.011553372 0.025389433 -0.018505491 0.028889457
-0.014683726 -0.0035266667 0.019101398 0.045712933 -0.031868167 0.011671282 0.019272447 0.055287812
-0.021586472 0.007142083 0.023802996 0.03651737 -0.005377125 0.0123925125 -0.0350219 0.052567165
0.031090623 -0.014156051 0.03407641 0.01894125 -0.035233535 0.039470457 -0.008503853 0.05248869
0.027766062 0.036564417 -0.005642591 0.017814081 0.048422255 0.029057348 0.039421927 -0.006061337
0.04361471 -0.00042868083 -0.015133909 0.0044918847 0.0152293565 -0.0077055125 0.03515317 0.023955854
00000000: 97ba 773c 94a9 213d 3225 723d f20a 55bb
00000010: aa45 203c e144 edbc 1c6d 533d f706 5a3d
00000020: d5f4 903d d733 2b3d 322a 8f3c 4c0c be3c
00000030: 8ced 98bc 1467 e7ba f930 733d ec93 a6bc
00000040: 670d cbbb 00bb fd3c 6831 613c 6b89 333d
00000050: bfca 203c 7bd0 483b 638a 1bbc dd83 ed3b
00000060: 3304 383c 8a91 053d 31f3 3bbc 42a3 353d
00000070: 7445 50bc b909 c6bb 618e 313d 0220 25bd
00000080: 1b78 663c 2156 7eb9 473d ae3c 36ec 36bd
00000090: 1526 3f3c 3cd1 303d 250d 1cbc 88b1 333c
000000a0: bd76 5d3d e3d3 9ebc 66bf 663d 5083 68bd
000000b0: 5754 b73c ba9d 9c3c ef47 d0bb f2fc 213d
000000c0: 0e74 c93c 7037 60bc 91d8 343d b81e 043d
000000d0: 9a66 183d ccc6 383c 3bab ac3b e860 fdbb
000000e0: 9648 34bd a46c 3f3d 765a debb e028 293d
000000f0: 5e66 f2bc 40cf 03bd 5b35 fabc 4475 273d
00000100: 83a7 013d eb4f fcbc 6045 183d 9b12 98bc
00000110: e6ed 833c 39c2 d33c e65c 4bbc 02bc 953b
00000120: eea4 c4bc bc44 203d 1ab3 813b 0202 863c
00000130: 9fc2 df3b e702 043d 0880 713c 9dd5 b9bb
00000140: fbe5 f93c 1ce9 de3b c9cd 143d 205a aa3c
00000150: b7b3 003d 2c3a 0b3d 690a 823c 1b50 413d
00000160: 0260 eebc d947 9bbc 028e a3bc 6ace 97bc
00000170: d8ed 593d 9049 123d 770d 54bc da2e 67bc
00000180: 8095 1a3c ec28 7f3c 2e38 113d dd03 b73c
00000190: 0f8a be3c 1399 503d 5857 13bb d7c5 34bd
000001a0: 87c6 eb3c c47b 1cbd c6f7 c1ba cdc2 f4bc
000001b0: a593 9eba 2020 53bd d0fc b43b 1c68 80bc
000001c0: a762 8abb 7471 eb3c baee 403d ba23 b83c
000001d0: c3ba a03c 62e8 043d eb77 2c3b 73bd fb3c
000001e0: 0456 5d3d b479 8fbc e6a7 01bc 713b 733d
000001f0: 83b4 d23c 922c da3c e719 573d cd3e 7bbb
00000200: f829 cd3c ab18 5d3c 9076 41bd 6d3e 6f3d
00000210: a05d 173c 9e4f 8c3c bb93 45bd a934 c6bb
00000220: 7c1a 643d 1b03 843c 2993 4e3d b84e 833d
00000230: b8f5 0cbd 337d 6b3d 8d47 d4bc 636c 533d
00000240: 47e6 3abc bdb6 3a3c 292e 29bc 5e74 8c3b
00000250: 8116 30bd 07ea c83c cdca 60bc 71c0 cdbb
00000260: 8026 03bd fb41 173d 4c23 97bc 0374 20bd
00000270: aa6e 953c 28eb c73c e2e5 85bc f56b 71bc
00000280: 8f16 183d 6e0e 14bc d5c0 323d 31ed 9f3c
00000290: bf74 063d ec53 32bd 6e7d 8abc f315 e3bc
000002a0: 2a64 713d 5210 133c 70cd 033d 0f8f 223d
000002b0: 0852 a4bc 260c 843c 55f5 843d 2c3c 80bc
000002c0: da7c bbbc 20ac 3ebb ee94 043d ef56 dc3c
000002d0: a145 0b3c 660c 103d 3294 fabc 4545 86bb
000002e0: cf12 54bd e6c9 5fbc da2a b5bb f052 e13c
000002f0: 2018 ce3c 37b6 fc3c f22f 3e3d 0b03 863d
00000300: 691c 12bd f422 b83c abf3 7fbc a0bb febc
00000310: 54b7 8abc 6544 f23c 12bb 75bc d1e7 d8bc
00000320: b2eb 14bd a836 dfbc 4572 7c3d b0df e83c
00000330: d1f7 153d be91 a5b9 4e60 843a 53f7 5a3c
00000340: a679 fd3c 2a4f e3bc 2329 933c 33f2 ca3c
00000350: 5b4a 3dbc 80fd cf3c d498 97bc 95a9 ec3c
00000360: 0394 70bc a61f 67bb 897a 9c3c 7c3d 3b3d
00000370: 3288 02bd e838 3f3c 40e1 9d3c 7975 623d
00000380: 1dd6 b0bc 2208 ea3b 80fe c23c 3d93 153d
00000390: 9832 b0bb f709 4b3c 2073 0fbd ab50 573d
000003a0: c3b1 fe3c c8ee 67bc b593 0b3d ae2a 9b3c
000003b0: 0a51 10bd c6ab 213d bf53 0bbc 61fe 563d
000003c0: a775 e33c 92c4 153d 7ce5 b8bb d6ee 913c
000003d0: 6a56 463d ad09 ee3c e378 213d 2e9e c6bb
000003e0: 57a5 323d 91c0 e0b9 37f4 77bc a930 933b
000003f0: 8d84 793c 867e fcbb c5fc 0f3d 113f c43c

fc.2.weight f4 [18, 256]
-0.051023465 -0.09333259 0.07058668 -0.050840013 -0.019552737 -0.05496676 0.07296184 0.11853926
-0.012095695 0.06503261 0.12650776 0.08948464 -0.045950912 -0.255995 -0.0245599 0.04033786
-0.022334935 -0.015549155 -0.009635319 0.020701295 0.033819273 -0.064631246 -0.032910693 0.09469802
-0.064054325 0.007827742 0.066882044 0.012282282 0.035386216 -0.0056965426 0.060013585 -0.0311158
-0.10528749 0.10902141 -0.018995348 0.027290529 0.007448274 0.099195786 0.0074245906 0.107713
-0.05189345 -0.0021984861 -0.07863849 0.087476015 0.03753837 -0.056403395 -0.20356074 -0.12930615
-0.11692623 0.0014476387 -0.060677875 -0.015494287 0.22250473 0.0038284594 -0.018778777 0.036379594
-0.054674823 -0.0019464949 -0.10171408 0.04795006 -0.24703676 -0.011096587 -0.027464777 -0.032110423
0.05580295 -0.07019365 -0.04136071 0.036794797 0.12568183 0.083276816 -0.0972864 -0.050340403
0.010550983 0.04835682 -0.067683525 -0.11371395 0.12741372 0.13575613 -0.04599219 0.014594874
0.06158765 -0.18458624 0.035651833 -0.095297575 -0.20215651 -0.090822324 -0.046702806 -0.2021957
-0.092608824 0.014171491 0.08167904 0.09257642 0.050889105 -0.03647965 -0.04130043 -0.105950244
0.08547575 0.10391695 -0.009840257 0.053810038 0.004744071 0.08322139 0.0327195 -0.025015252
0.0603013 0.0056095975 0.039482996 -0.09768388 0.035209883 0.032504763 0.13708487 -0.14212541
-0.019631797 -0.040190026 -0.11476639 0.0022750427 -0.01829031 -0.061634324 -0.015231169 -0.0484706
-0.08570835 -0.013172268 0.08800615 -0.020440064 0.051840313 0.07984122 -0.15040869 -0.15140611
-0.055761773 0.08667198 0.10820229 -0.12600718 -0.07116404 -0.062054086 0.0069829985 0.11308475
0.046067785 -0.08346083 0.041424695 -0.09891153 0.035251744 -0.06170337 0.0018833363 0.0074020866
0.037362207 -0.020830411 -0.038591124 0.11450944 -0.015106099 0.05719502 -0.0069049755 -0.04323903
-0.013172646 -0.12842886 -0.020555899 0.06055706 -0.02820226 -0.027516112 5.365756e-05 -0.13882922
0.015692744 -0.14050357 0.054390036 0.08235147 -0.0766871 0.033178583 0.03146678 0.015427609
0.08619176 0.035034664 0.024918213 0.08084858 -0.077131994 0.04206313 -0.111430325 -0.02795395
-0.044705067 -0.13116135 0.0063116197 -0.060645834 0.059047785 -0.19477065 -0.048110556 0.123833194
-0.046750627 -0.1204812 0.044305153 0.0767808 0.0061281174 0.12950715 0.016738867 -0.02345795
-0.2537497 -0.069180384 -0.039643165 0.05706348 -0.00491975 0.017577102 0.010087264 -0.027014064
0.091166876 -0.047003333 0.079313934 -0.04973247 -0.01728096 0.09681287 0.047652114 0.091689594
0.020650174 0.04476754 0.07612901 0.0053040977 -0.0059829755 0.023876432 0.108535364 0.050444
0.010538895 0.09535012 0.04018429 0.13766885 -0.01440727 -0.022681406 0.021151265 -0.10977987
-0.101030424 0.073683 0.017859658 -0.04225444 -0.006335729 -0.054853484 0.03274063 0.06443531
0.044190817 -0.01392971 0.05080433 -0.14415188 -0.011249027 0.020263437 -0.11385621 0.083082095
0.05156533 0.056389928 -0.027644118 -0.028482175 -0.09662686 0.028638018 0.078154154 -0.05027866
0.0694835 -0.030343052 0.035316747 -0.0040861424 -0.16111276 -0.094201624 0.035101842 0.06477258
00000000: fbfd 50bd 2825 bfbd c08f 903d 9e3d 50bd
00000010: 102d a0bc d324 61bd 046d 953d b6c4 f23d
00000020: 062d 46bc d12f 853d 408b 013e b943 b73d
00000030: 0637 3cbd c711 83be d831 c9bc 5039 253d
00000040: c1f7 b6bc e2c1 7ebc 75dd 1dbc c395 a93c
00000050: 1486 0a3d 635d 84bd 5dcd 06bd 09f1 c13d
00000060: ea2e 83bd ee3f 003c 74f9 883d a03b 493c
00000070: 23f1 103d 10aa babb ced0 753d 90e6 febc
00000080: f8a0 d7bd 9e46 df3d 229c 9bbc 6390 df3c
00000090: a710 f43b 2927 cb3d fb49 f33b a298 dc3d
000000a0: 3a8e 54bd 7a14 10bb 370d a1bd a026 b33d
000000b0: d5c1 193d 3f07 67bd 3a72 50be d568 04be
000000c0: 0577 efbd b2be bd3a 5d89 78bd c0db 7dbc
000000d0: 48d8 633e e4e6 7a3b f3d5 99bc c502 153d
000000e0: b5f2 5fbd 8821 ffba 794f d0bd 4867 443d
000000f0: 34f7 7cbe 76ce 35bc d0fd e0bc 3886 03bd
00000100: a291 643d b0c1 8fbd d969 29bd 24b6 163d
00000110: bdb2 003e 098d aa3d 183e c7bd bd31 4ebd
00000120: 08de 2c3c cd11 463d a99d 8abd dce2 e8bd
00000130: be78 023e a803 0b3e 4e62 3cbd 571f 6f3c
00000140: 5543 7c3d 2d04 3dbe a807 123d 602b c3bd
00000150: 1e02 4fbe 0e01 babd 714b 3fbd 640c 4fbe
00000160: b2a9 bdbd 8b2f 683c 5747 a73d b598 bd3d
00000170: 1871 503d af6b 15bd a42a 29bd 71fc d8bd
00000180: e90d af3d 69d2 d43d 0739 21bc ea67 5c3d
00000190: 2774 9b3b fa6f aa3d e204 063d c9ec ccbc
000001a0: 7ffe 763d b7d0 b73b ecb8 213d 7c0e c8bd
000001b0: 3d38 103d b723 053d fa5f 0c3e 5389 11be
000001c0: ddd2 a0bc 4c9e 24bd a40a ebbd e218 153b
000001d0: 8fd5 95bc 4674 7cbd 278c 79bc 1c89 46bd
000001e0: dc87 afbd 7fd0 57bc 923c b43d ec71 a7bc
000001f0: 8256 543d cb83 a33d bc04 1abe 340a 1bbe
00000200: 7566 64bd 1481 b13d 2a99 dd3d 0708 01be
00000210: 74be 91bd 6d2c 7ebd a3d1 e43b fa98 e73d
00000220: 93b1 3c3d 83ed aabd f1ac 293d 2192 cabd
00000230: 2264 103d acbc 7cbd 48da f63a 348d f23b
00000240: 1d09 193d 8aa4 aabc ba11 1ebd ed83 ea3d
00000250: 927f 77bc 5345 6a3d 2243 e2bb 691b 31bd
00000260: 15d2 57bc db82 03be d864 a8bc ae0a 783d
00000270: 6d08 e7bc 7869 e1bc 5e0e 6138 3f29 0ebe
00000280: 128e 803c 2be0 0fbe 16c8 5e3d e3a7 a83d
00000290: 200e 9dbd 44e6 073d 4fe3 003d 15c4 7c3c
000002a0: 4e85 b03d 8280 0f3d 4821 cc3c f193 a53d
000002b0: 61f7 9dbd 634a 2c3d 9535 e4bd afff e4bc
000002c0: a91c 37bd 294f 06be b4d1 ce3b c467 78bd
000002d0: 17dc 713d f571 47be 930f 45bd 429c fd3d
000002e0: 967d 3fbd d9be f6bd 5279 353d 413f 9d3d
000002f0: 60ce c83b 869d 043e f31f 893c e32a c0bc
00000300: 7beb 81be 72ae 8dbd df60 22bd 65bb 693d
00000310: db35 a1bb dbfd 8f3c 0d45 253c 994c ddbc
00000320: b3b5 ba3d 9186 40bd 586f a23d 46b4 4bbd
00000330: cd90 8dbc d345 c63d dd2e 433d c1c7 bb3d
00000340: 8e2a a93c 2b5e 373d 87e9 9b3d ffcd ad3b
00000350: d60c c4bb 8298 c33c ca47 de3d 5e9e 4e3d
00000360: 54ab 2c3c ec46 c33d 4898 243d 10f9 0c3e
00000370: 780c 6cbc 5bce b9bc 6b45 ad3c 45d4 e0bd
00000380: 0ae9 cebd 1de7 963d 6b4e 923c fe12 2dbd
00000390: f29b cfbb 0cae 60bd 0a1b 063d a9f6 833d
000003a0: 6e01 353d 7039 64bc 3318 503d 8d9c 13be
000003b0: d74d 38bc 82ff a53c 722d e9bd f226 aa3d
000003c0: 2b36 533d 20f9 663d eb75 e2bc 7353 e9bc
000003d0: 4ee4 c5bd 479a ea3c 490f a03d fff0 4dbd
000003e0: 5e4d 8e3d fe91 f8bc 4ba8 103d 0ce5 85bb
000003f0: befa 24be c8ec c0bd f3c6 0f3d 7da7 843d

fc.2.bias f4 [18]
-0.019951673 0.061557293 -0.013678715 -0.051226567 0.029495742 0.016330374 0.022900695 0.037738066
-0.03375667 -0.026296644 -0.027768342 0.056237616 0.02953202 0.01977081 -0.05289688 -0.06171868
0.039071713 0.0060819914
00000000: b171 a3bc 8023 7c3d b01c 60bc f3d2 51bd
00000010: 0ea1 f13c 47c7 853c 3d9a bb3c 3b93 1a3d
00000020: 6f44 0abd 0f6c d7bc 6f7a e3bc 6a59 663d
00000030: 23ed f13c 65f6 a13c 66aa 58bd bacc 7cbd
00000040: a909 203d 714b c73b
