head.pth (torch, 539512 bytes, 4 tensors)

fc.0.weight f4 [256, 512]
0	0xbc8c05d9	-0.017092632
1	0xbccc85d9	-0.024966167
2	0xbba031de	-0.004888757
3	0x3cd86b2a	0.026418287
4	0x3caddb78	0.021222815
5	0xbcf4d51d	-0.029886777
6	0x3d025ec5	0.03182866
7	0x3bd972c6	0.0066359965
8	0xbd2cca78	-0.042185277
9	0x3ce875e5	0.028376529
10	0xbac997f0	-0.0015380364
11	0xbc508f61	-0.012729497
12	0xbc9fc7da	-0.019504476
13	0xbd4acf71	-0.049514238
14	0xbd0341fc	-0.03204535
15	0xbc77bf51	-0.015121297
16	0x3d012097	0.03152522
17	0x3c4ba18c	0.0124286525
18	0x3cacfc2b	0.021116337
19	0xbcdfebaf	-0.027334062
20	0x3a2f87ca	0.00066959544
21	0x3bfa2c60	0.0076346844
22	0xbbe33f62	-0.006935046
23	0xbd411719	-0.04714117
24	0xbd2a3c12	-0.041561194
25	0x3a3388f1	0.0006848714
26	0x3cea7278	0.028619036
27	0x3c9d46ed	0.01919886
28	0xbce7dd02	-0.028303627
29	0xbcb38542	-0.021914128
30	0x3d3cac9e	0.046063058
31	0x3c043b05	0.008070712
32	0x3baef43b	0.005339173
33	0x3cb2f595	0.021845618
34	0x3c3dbb8a	0.011580357
35	0x3d4eaef3	0.050459813
36	0x3c76c356	0.01506122
37	0xbc999fdd	-0.018752987
38	0xbc06cac7	-0.008227057
39	0xbc2e7ea5	-0.010650312
40	0x3d14c471	0.036320154
41	0x3d093c11	0.03350455
42	0x3d01e671	0.031713907
43	0xbbea0362	-0.0071415165
44	0x3c49a8d2	0.012308316
45	0x3d00e3bd	0.03146719
46	0xbc8caaf5	-0.017171362
47	0xbcfd67ab	-0.030933222
48	0xbd33dcdf	-0.04391181
49	0xbc9fb7cf	-0.019496826
50	0xbd06c0f6	-0.032898866
51	0xbbaa59cc	-0.005198693
52	0x3c6deca9	0.014521756
53	0xbd04d9a4	-0.03243412
54	0x3d12f5f0	0.035879076
55	0x3d16ac9e	0.036785714
56	0xbd1a8faf	-0.037734684
57	0x3c7407de	0.014894454
58	0x3d49bf3e	0.04925465
59	0xbcb2a425	-0.021806786
60	0xbd41171a	-0.047141172
61	0x3c34c0a2	0.011032255
62	0x3c8b1c1c	0.016981177
63	0xbcafa546	-0.021441113
64	0x3c389c07	0.011267669
65	0x3ca619ff	0.020276068
66	0x3c3f62b0	0.011681244
67	0x3d11e1e6	0.035615824
68	0x3c97b667	0.018519593
69	0x3be170aa	0.0068798857
70	0x3d4de722	0.050269254
71	0x3d054774	0.032538846
72	0xbc653d9a	-0.013991738
73	0x3cf240c6	0.029571902
74	0xbccf3bb6	-0.025297027
75	0xbcb37f2b	-0.021911224
76	0x3c8dbd2c	0.017302118
77	0x3be66b22	0.007031814
78	0xbb4eea87	-0.0031572895
79	0x3ccf91cb	0.025338074
80	0x3d26e3a4	0.04074444
81	0x3d0f8635	0.0350401
82	0x3b8eb310	0.004354842
83	0x3c5f4919	0.013628268
84	0xbcffce5a	-0.031226326
85	0x3d0c6964	0.034280196
86	0xbbc2d213	-0.005945453
87	0x3d11a32d	0.035556007
88	0xbd113afd	-0.035456646
89	0x3d4392e0	0.047747493
90	0xbd0fdcc3	-0.035122644
91	0x3ab89866	0.0014083504
92	0x3d0f6937	0.03501245
93	0xbd16f366	-0.036853217
94	0x3c03cfff	0.008045196
95	0x3ce9f59d	0.0285595
96	0xbcbb676b	-0.022876462
97	0xbd320bae	-0.04346817
98	0x3c11ffbe	0.008911071
99	0x3c57f862	0.013181778
100	0xbca94e66	-0.020667266
101	0xbc597861	-0.0132733295
102	0xbc36dcf4	-0.011161078
103	0x3c82d309	0.01596977
104	0xbd1e1526	-0.038594387
105	0xbbdbb706	-0.0067051677
106	0x3bd618c0	0.006533712
107	0xbc9eabf1	-0.019369097
108	0x3c83609c	0.016037278
109	0x3c880647	0.016604556
110	0x3c980c55	0.018560568
111	0xbbb20ff4	-0.0054340307
112	0xbca2c5a1	-0.019869627
113	0xbd0ae04b	-0.03390531
114	0x3ca174d7	0.019709034
115	0xbb62e68c	-0.003462228
116	0xbc204a53	-0.009783345
117	0x3c2e2143	0.010628047
118	0x3d0c4ca8	0.034252793
119	0x3c93060f	0.017947225
120	0xbcd399e6	-0.02583022
121	0x3c807cc2	0.01568449
122	0xbc96ed8e	-0.018423822
123	0x3d186024	0.03720106
124	0x3cf7cd6a	0.030249316
125	0x3d46a872	0.048500486
126	0x3b6292d5	0.0034572382
127	0xbd2cbdf1	-0.04217333
128	0x3d291610	0.041280806
129	0xbca3ca9a	-0.019994069
130	0x3c9b1b33	0.018933868
131	0x3c890063	0.016723817
132	0xbd261b82	-0.040553577
133	0x3ce82ace	0.028340723
134	0x3ba90e90	0.0051592067
135	0x3ca67c13	0.020322835
136	0xbc74f95f	-0.014952033
137	0x3d017b3d	0.03161167
138	0x3d4b5d19	0.04964933
139	0x3b4dd60f	0.0031408106
140	0xbbf892af	-0.0075858454
141	0xbca93fe9	-0.020660358
142	0x3d0625ed	0.032751013
143	0xbc13530f	-0.008991971
144	0xbbfc1dc7	-0.0076939794
145	0x3c2ccf0f	0.0105474135
146	0xbbdcd67f	-0.006739437
147	0xbcfab21b	-0.030602505
148	0x3cc02275	0.02345393
149	0xbc42f6d4	-0.011899669
150	0x3ceaa3ff	0.028642653
151	0x3c39d605	0.01134253
152	0xbb79499c	-0.003803826
153	0xbc695f66	-0.014243936
154	0xbcf21a12	-0.029553447
155	0x3ce34b26	0.027745795
156	0xbc2cf5e4	-0.010556672
157	0x3b98d265	0.004663753
158	0xbd297c7d	-0.041378487
159	0x3cff6acc	0.031178854
160	0x3c6f60f8	0.0146105215
161	0xbcd3731f	-0.02581173
162	0x3d059aff	0.03261852
163	0x3be848e2	0.0070887664
164	0x3ba8e22e	0.005153916
165	0x3cb0fff0	0.021606416
166	0x3d352b6c	0.044230863
167	0x3c4e56db	0.01259395
168	0x3c86c91c	0.016453318
169	0x3c74dc46	0.014945095
170	0x3aed91c4	0.0018125107
171	0x3c9ab0fd	0.018883223
172	0xbd1713fd	-0.036884297
173	0xbcef3bd3	-0.029203331
174	0x3d333f1f	0.04376137
175	0xbcb8606f	-0.02250692
176	0xbcb2ee43	-0.021842128
177	0xbb06a73f	-0.0020546464
178	0x3c856780	0.016284704
179	0x3cfe0b95	0.031011382
180	0xbc3d0b77	-0.011538378
181	0x3d140acc	0.03614311
182	0xbb8294a0	-0.0039850026
183	0xbcd9f5da	-0.026606489
184	0xbbe3b3b4	-0.0069489125
185	0x3c75bb2d	0.014998239
186	0x3bedc876	0.007256563
187	0x3c55ba1a	0.013044858
188	0x3cbd9c0c	0.023145698
189	0xbd033aa3	-0.032038342
190	0xbc408f43	-0.011752906
191	0x3cc5f883	0.024166351
192	0xbd44d210	-0.048051894
193	0x3ce6ae06	0.028159153
194	0x3af83293	0.0018935971
195	0x3cacc207	0.021088613
196	0xbd1647f2	-0.036689706
197	0x3c7d0982	0.015444161
198	0x3d0a65ea	0.0337886
199	0xbd107a55	-0.035272915
200	0x3c2ffc0a	0.010741243
201	0xbc82db56	-0.015973728
202	0xbc20996d	-0.009802205
203	0x3c46f227	0.012142695
204	0x3d02a0fb	0.031891804
205	0xbd4a89b6	-0.049447738
206	0x3caac6cc	0.020846747
207	0x3d285ff8	0.041107148
208	0x3c3512e1	0.011051864
209	0xbcb8feab	-0.022582373
210	0xbd4653be	-0.048419707
211	0xbcaa2c36	-0.020773035
212	0xbaa791f1	-0.0012784583
213	0xbce15340	-0.027505517
214	0x3d054c79	0.032543633
215	0xbc81d9ce	-0.015850928
216	0x3cfde3fb	0.030992499
217	0xbb306455	-0.0026915271
218	0x3c6f6b6a	0.014613012
219	0x3ce8a5bb	0.028399339
220	0x3cf83fd3	0.030303871
221	0xbc552e18	-0.013011478
222	0xbd3dcf06	-0.04634001
223	0xbbf92646	-0.0076034395
224	0xbc76466c	-0.015031438
225	0x3ccac49f	0.02475196
226	0x3cf33af6	0.0296912
227	0xbc4fae5d	-0.012675849
228	0xbc08c708	-0.008348234
229	0xbc8fe1f4	-0.017563798
230	0x3bf28128	0.0074006505
231	0x3d0ac467	0.03387871
232	0x3d0d4b2e	0.034495525
233	0x3c61e5fe	0.013787745
234	0xbcc12758	-0.02357833
235	0xbc40490a	-0.011736164
236	0xb9dda1a7	-0.00042272845
237	0x3cd9def6	0.026595574
238	0x3ca2059e	0.01977807
239	0xbc0bb6e2	-0.008527489
240	0x3cd4c816	0.025974315
241	0x3d0f6b7a	0.035014607
242	0xbcc884b6	-0.024477344
243	0x3b7ac02b	0.0038261514
244	0x3cb809bb	0.022465577
245	0xbce25ca6	-0.027632069
246	0xbcc6b7f3	-0.024257636
247	0xba9cb2f1	-0.0011955184
248	0xbb816e08	-0.0039498843
249	0xbcba9e91	-0.022780688
250	0x3cb17b95	0.021665374
251	0xbd1a319a	-0.03764496
252	0xbc7a6551	-0.015282945
253	0xbd45501a	-0.048172094
254	0xbd06282b	-0.03275315
255	0x3cb3c041	0.02194226

fc.0.bias f4 [256]
0	0xbca4f67c	-0.020137064
1	0xb9a0fea2	-0.00030707294
2	0xbc89735b	-0.016778639
3	0x3ce78899	0.028263377
4	0xbb24de84	-0.0025157044
5	0x3c2572dc	0.010098185
6	0x3b84bd5a	0.004050893
7	0xbc74f151	-0.014950112
8	0xbcfd56b8	-0.03092514
9	0xbd3d6046	-0.04623439
10	0x3d295e73	0.04134984
11	0x3cac5305	0.02103568
12	0xbca0409f	-0.019562064
13	0xbb00c9b9	-0.0019651486
14	0x3d228402	0.039676674
15	0x3c03f09c	0.008052971
16	0xbd0dffa8	-0.03466764
17	0xbbad7b92	-0.0052942717
18	0x3cd24dcb	0.02567186
19	0x3b9b4fef	0.0047397534
20	0xbd2bab68	-0.041911513
21	0xbc93d639	-0.018046485
22	0x3d24c814	0.040229872
23	0xbd3c0232	-0.04590053
24	0x3cd188d1	0.025577934
25	0x3ce71fba	0.02821337
26	0xbc9c4409	-0.01907541
27	0x3d04809a	0.032349207
28	0xbd3c2102	-0.045929916
29	0xbd244692	-0.040106364
30	0xbc508b3d	-0.0127285095
31	0xbcab9bbc	-0.020948283
32	0xbcca5a23	-0.024701184
33	0x3b801f73	0.003909999
34	0x3c15dd62	0.00914702
35	0xbcd21b13	-0.025647676
36	0x3cb31746	0.021861684
37	0xbd07d102	-0.03315831
38	0x3c06c5f8	0.00822591
39	0x3bd85615	0.0066020587
40	0x3c420eff	0.011844396
41	0x3d4a4918	0.049386114
42	0x3d4fb827	0.05071273
43	0xbc7d27c4	-0.015451375
44	0xbd126d6c	-0.035748884
45	0x3ca5b644	0.020228513
46	0xbc833ee9	-0.016021209
47	0x3bc2211c	0.005924357
48	0xbd260d4d	-0.04054003
49	0xbc81658a	-0.015795488
50	0xbc13db9d	-0.009024528
51	0xba275970	-0.00063838717
52	0xbd1b2019	-0.037872408
53	0xbd1de2ca	-0.03854636
54	0x3cfbb42b	0.03072556
55	0x3c7704c2	0.015076818
56	0x3d64f1e7	0.05589476
57	0x3c3e1519	0.01160171
58	0xbd330ef5	-0.043715436
59	0x3ca0c447	0.019624842
60	0x3cee514d	0.029091502
61	0x3c3daebc	0.011577304
62	0xbc674cec	-0.014117461
63	0x3d675e7b	0.056486588
64	0x3bfd913a	0.0077382596
65	0x3d5c24a5	0.053745884
66	0x3c3a2de2	0.011363478
67	0x3cc3fa7c	0.023923151
68	0x3d410958	0.04712805
69	0xbd0892a5	-0.033342976
70	0xbc83a9a7	-0.016072107
71	0xbcb5802f	-0.02215585
72	0xba185986	-0.000581168
73	0x3c87251d	0.01649719
74	0xbd11535c	-0.03547989
75	0x3c526525	0.012841498
76	0x3c52347a	0.012829894
77	0x3d6d315c	0.0579084
78	0xbcfb7a69	-0.030698018
79	0x3d338123	0.043824326
80	0x3c6df6cb	0.014524172
81	0xbce5270e	-0.027972724
82	0x3ce05b6c	0.027387343
83	0x3bc85320	0.006113425
84	0xbc13032b	-0.008972923
85	0x3d0176eb	0.03160755
86	0xbcd22dca	-0.0256566
87	0xbc0156e1	-0.007894249
88	0xbd438b32	-0.04774017
89	0x3d74401f	0.059631463
90	0x3d11283e	0.03543877
91	0xbc2bc9c8	-0.01048512
92	0x3d6523d7	0.055942383
93	0x3b199e82	0.0023440425
94	0xbb49c665	-0.0030788418
95	0x3c80679e	0.015674409
96	0x3d32c990	0.043649256
97	0x3c92dafb	0.017926684
98	0x3bb69eba	0.005573121
99	0x3d0eec91	0.034893576
100	0x3c7fdec4	0.015617076
101	0x3c803cac	0.01565393
102	0xbd1e7309	-0.038683925
103	0x3d81fd3d	0.063471295
104	0x3bb2a604	0.0054519195
105	0xbc5d1ef7	-0.013496152
106	0x3d03faef	0.03222173
107	0xbd42222d	-0.047395874
108	0x3d08abe0	0.033367038
109	0xbc657fb8	-0.014007501
110	0x3cf6f3f5	0.030145625
111	0xbbaceb1d	-0.005277051
112	0x3c564fa7	0.013080514
113	0xbb52ab17	-0.0032145435
114	0xbd5215ec	-0.051290438
115	0x3c6b49e6	0.0143608805
116	0xbd3b1fcf	-0.045684632
117	0x3c0e2271	0.008675204
118	0x3b88617e	0.0041620126
119	0x3c90d0ae	0.017677631
120	0xbc8bf9b6	-0.017086845
121	0x3c99d394	0.018777646
122	0x3d7523fb	0.059848767
123	0x3c0bc2f4	0.008530367
124	0xbcea6347	-0.028611792
125	0x3b280494	0.0025637494
126	0x3c607a1b	0.013700987
127	0x3d0a9209	0.033830676
128	0xbc83fe5a	-0.016112495
129	0xbcd6d5dd	-0.026225025
130	0xbcfa8956	-0.030583065
131	0x3c8a120d	0.01685431
132	0x3c69c28a	0.014267573
133	0xbc48cba1	-0.01225558
134	0x3cdeaf6b	0.027183255
135	0xbca498de	-0.020092424
136	0xbccaa258	-0.024735615
137	0xbcd6aaad	-0.026204431
138	0xbcd4d326	-0.02597959
139	0x3c7f98ae	0.0156003665
140	0xbcf24e61	-0.02957839
141	0xbcf8184a	-0.03028502
142	0x3cdbd15c	0.026833229
143	0x3bfdb00e	0.0077419346
144	0x3cf769d9	0.03020184
145	0xbd474602	-0.04865075
146	0xbcbbbc52	-0.022916947
147	0xbd33a074	-0.043854192
148	0x3d3bdd46	0.04586532
149	0x3d1704c7	0.03686979
150	0xbbf0c058	-0.007347148
151	0x3d2b99c9	0.041894708
152	0xbc6983de	-0.014252631
153	0x3d2c5786	0.042075656
154	0xbce0c91e	-0.02743965
155	0x3ce401c0	0.027832866
156	0x3d6808c2	0.056648977
157	0xbcfbdf17	-0.030746026
158	0x3c2d4b4c	0.010577034
159	0x3cb156ba	0.0216478
160	0x3d76e07e	0.060272686
161	0x3d1b1cdb	0.037869316
162	0x3d4cf72e	0.050040416
163	0x3cac53f7	0.021036131
164	0x3d27bf2f	0.04095381
165	0xbb429d73	-0.0029695898
166	0xbc7401ec	-0.014893036
167	0x3d72ffd8	0.059326023
168	0x3cfcc196	0.030854028
169	0x3d1b77cf	0.037956055
170	0x3cc4e564	0.024035163
171	0x3c61ede7	0.0137896305
172	0x3d380139	0.04492304
173	0x3d148ce6	0.036267184
174	0x3aca0618	0.0015413193
175	0x3d612f57	0.054976787
176	0x3c630dde	0.013858287
177	0x3cf40eff	0.029792307
178	0x3cd5fce9	0.026121574
179	0xbaa2ebc0	-0.0012429878
180	0x3d34f81f	0.04418194
181	0xbb50eab8	-0.0031878185
182	0xbc5a8be4	-0.013339017
183	0x3d001316	0.0312682
184	0x3c83f333	0.016107177
185	0x3d031ffc	0.032012925
186	0x3d232a7e	0.039835446
187	0xbc92f552	-0.017939243
188	0x3ce21562	0.027598087
189	0xba7c2657	-0.000961875
190	0xbc2e3802	-0.0106334705
191	0x3c9597af	0.018260805
192	0x3c1b642b	0.009484331
193	0x3b74af80	0.0037336051
194	0xbc170bb4	-0.009219099
195	0x3c84154b	0.016123435
196	0x3ca358c8	0.019939795
197	0x3c55e05e	0.013053982
198	0xbb9a7f44	-0.0047148783
199	0xbbf51fae	-0.007480583
200	0x3c95ca53	0.018284952
201	0xbc621f08	-0.013801344
202	0x3cf8a923	0.030354088
203	0xbc97ed4c	-0.01854577
204	0xbc4742b5	-0.0121619
205	0x3b868e7c	0.004106341
206	0xbc959efa	-0.018264282
207	0xbb71d16c	-0.0036898507
208	0x3d04d979	0.03243396
209	0x3d287d83	0.041135322
210	0x3c825231	0.015908333
211	0xbbe97921	-0.0071250354
212	0xbc3646e3	-0.011125299
213	0x3d05874e	0.03259974
214	0xbd185ed5	-0.037199814
215	0xbb6a54b1	-0.0035756046
216	0x3d0dd323	0.034625184
217	0xbc9d2d02	-0.0191865
218	0xbd3d15af	-0.046163257
219	0x3d1f3efe	0.038878433
220	0x3ce0c3d7	0.027437134
221	0x3d3dae8d	0.046309043
222	0xbd2e4788	-0.042548686
223	0x3cc85079	0.024452435
224	0xbcbe36d1	-0.023219498
225	0xbbc6d2b9	-0.0060676006
226	0x3c9b5a0f	0.018963842
227	0x3cd3067f	0.025759934
228	0xbd0208a4	-0.03174652
229	0x3c89a68b	0.016803047
230	0x3c599b82	0.013281705
231	0xbd2742b9	-0.040835116
232	0x3cac219c	0.02101212
233	0x3c467a45	0.012114112
234	0x3d1d1b13	0.038355898
235	0xbcbabfac	-0.022796474
236	0x3cfa5d41	0.030562045
237	0xbc8d0b44	-0.017217286
238	0x3d55f6ff	0.052237507
239	0x3c993a06	0.018704426
240	0xbd032414	-0.03201683
241	0xbcf8a66d	-0.030352795
242	0xbcaede9f	-0.021346388
243	0xbbbfe1f1	-0.0058557917
244	0xbcb7951f	-0.022409974
245	0xbcebbbf8	-0.028776154
246	0x3ca0b4a1	0.01961738
247	0xbd1fb8d7	-0.038994636
248	0x3d068a4e	0.03284674
249	0x3ce29f62	0.02766389
250	0x3d5b2d5e	0.053510062
251	0x3c1ec0e8	0.009689547
252	0x3bf5dd90	0.007503219
253	0x39eceb2f	0.00045188653
254	0x3c2eaa3a	0.010660702
255	0x3d06c7a6	0.032905243

fc.2.weight f4 [12, 256]
0	0x3d07d70c	0.03316407
1	0x3cbaa22d	0.02278241
2	0x3ccbf7c0	0.02489841
3	0xbd043724	-0.03227915
4	0xbde36f53	-0.11105218
5	0xbd2940e1	-0.04132164
6	0xbe15f3e1	-0.14643814
7	0x3ce258b1	0.027630182
8	0x3d246a9b	0.04014073
9	0xbd5aabf5	-0.053386647
10	0x3d98fbc0	0.074698925
11	0xbd9a14ba	-0.075234845
12	0x3cb1813d	0.02166807
13	0x3cd54fd6	0.026039045
14	0xbc1643e8	-0.009171464
15	0x3df11e4c	0.11773357
16	0xbd74900c	-0.059707686
17	0xbc936d60	-0.01799649
18	0xbe1f0043	-0.15527444
19	0x3cab8a60	0.020940006
20	0x3d443b87	0.047908332
21	0xbd7a2423	-0.06106962
22	0xbdb1ad79	-0.086756654
23	0x3d498dbf	0.049207445
24	0x3caaeefe	0.020865913
25	0xbd997c5a	-0.07494421
26	0xbc9d1f24	-0.019179888
27	0xbd0fadf4	-0.035078004
28	0xbd6e5831	-0.058189575
29	0x3d215a6b	0.03939287
30	0x3d159498	0.036518663
31	0x3c87d6bf	0.016581891
32	0xbc91f984	-0.017819174
33	0x3d85f6a9	0.06541187
34	0xbcc3f236	-0.023919206
35	0xbc83aeff	-0.016074656
36	0x3d4df566	0.05028286
37	0xbd8ca224	-0.06866863
38	0xbd278ed0	-0.04090768
39	0x3b8c8d3a	0.0042892965
40	0xbd96c399	-0.07361526
41	0x3dd6205e	0.10455392
42	0xbc7cc38f	-0.015427484
43	0xbd744c96	-0.05964335
44	0x3d68aa1c	0.056802854
45	0xbce30a04	-0.027714737
46	0xbc45ae00	-0.012065411
47	0xbe006b85	-0.12541015
48	0xbd0aa2ad	-0.033846546
49	0xbae0795e	-0.0017126014
50	0x3d6463ac	0.055759117
51	0xbdc67e8e	-0.09692107
52	0x3cb4f11c	0.022087626
53	0xba93d647	-0.001127907
54	0xbd79c5ba	-0.060979582
55	0xbd2f7ebb	-0.04284547
56	0x3dd96ad3	0.10616078
57	0x3d94fd49	0.07274873
58	0x3d662da6	0.056195877
59	0xbdfad2a2	-0.12247206
60	0xbd0c113a	-0.034196116
61	0xbc08cb77	-0.008349291
62	0x3bf1ecc1	0.0073829596
63	0xbdcf810d	-0.10132036
64	0xbd8d9ddf	-0.06914877
65	0xbc38f125	-0.011287962
66	0x3d8d9bdd	0.06914494
67	0xbc2a0370	-0.010376796
68	0x3da0998c	0.07841787
69	0x3d679552	0.056538887
70	0xbd788486	-0.06067326
71	0x3d8027c2	0.06257583
72	0x3d333af7	0.043757405
73	0x3c91d77c	0.017802946
74	0xbd623cdb	-0.055233818
75	0xbd34eddc	-0.044172153
76	0xbcb112ba	-0.021615375
77	0xbcce670b	-0.02519562
78	0x3b1297be	0.0022368277
79	0xbc3211f8	-0.010868542
80	0x3d0149e1	0.031564597
81	0xbd6c0eb7	-0.05763122
82	0x3daa58cf	0.0831772
83	0x3d09ca55	0.033640224
84	0x3d41f796	0.047355257
85	0xbd69eec6	-0.057112478
86	0x3cb8aa24	0.022542067
87	0xbc8e9f11	-0.017409833
88	0xbce4e9fc	-0.027943604
89	0xbe01269d	-0.12612386
90	0x3d5007f4	0.050788835
91	0x3db07059	0.086151786
92	0x3d92f825	0.07176236
93	0xbc905db1	-0.0176228
94	0xbd5da915	-0.054116327
95	0xbd1bdff8	-0.03805539
96	0x3cfd2820	0.030902922
97	0xbd5e62ad	-0.054293323
98	0xbcfa7ca8	-0.030577019
99	0x3d377e63	0.044798266
100	0x3d261c78	0.040554494
101	0xbb112cc3	-0.0022151924
102	0x3c941838	0.018077955
103	0x3c57a41c	0.013161685
104	0xbd1cd00c	-0.038284346
105	0x3d2f7b4b	0.04284219
106	0x3d1b554a	0.037923135
107	0x3bc65d5c	0.00605361
108	0xbd50ff2e	-0.05102461
109	0x3c55106d	0.0130044045
110	0xbd42bb11	-0.04754168
111	0xbddce44d	-0.107857324
112	0x3d107ab3	0.035273265
113	0xbd4c1638	-0.049825877
114	0xbc1395c7	-0.009007878
115	0xbdbe78f9	-0.093004175
116	0x3c7b21f8	0.015327923
117	0x3dba2bfd	0.09090421
118	0xbd9dba10	-0.07701504
119	0x3ce6100e	0.028083827
120	0xbc1d9a29	-0.009619274
121	0xbd302e62	-0.043012984
122	0xbdc95780	-0.098311424
123	0x3d64f2fa	0.055895783
124	0x3d093d1c	0.033505544
125	0xbbfe6bcd	-0.0077643157
126	0x3cb9d1c9	0.022683041
127	0x3d201094	0.03907831
128	0x3da89a78	0.082325876
129	0xbb86f156	-0.004118125
130	0x3dacb047	0.0843206
131	0xbd9df6c5	-0.07713083
132	0xbd88fb93	-0.06688609
133	0xbd38a5a8	-0.045079857
134	0x3c68b6b3	0.014203715
135	0xbd418952	-0.0472501
136	0xbd620922	-0.05518449
137	0xba6634e5	-0.00087816856
138	0xbd395138	-0.04524347
139	0x3ccd5a23	0.025067395
140	0xbc8f1c9f	-0.017469702
141	0x3c9dad01	0.019247534
142	0x3d3419ce	0.04396992
143	0xbd3acd22	-0.045605786
144	0x3d29abb5	0.04142352
145	0x3981eb0e	0.00024779927
146	0xbd7b7567	-0.06139126
147	0xbd4e7493	-0.050404143
148	0x3a8b0e54	0.0010609129
149	0xbca52b11	-0.020162137
150	0x3d71c4b4	0.05902548
151	0x3d6a1cf2	0.05715651
152	0x3c801329	0.015634136
153	0xbd95b96a	-0.073107556
154	0x3d842383	0.06452086
155	0xbbf8ef56	-0.0075968904
156	0x3d457855	0.04821046
157	0xbd424fd8	-0.047439426
158	0x3dbb5a6e	0.091481075
159	0x3b525b2f	0.0032097807
160	0xbb1722ca	-0.0023061507
161	0xbdc74dba	-0.09731622
162	0x3d292f8f	0.04130512
163	0xbb9e3771	-0.0048283865
164	0x3d35c5f4	0.044378236
165	0x3cf39a0f	0.029736547
166	0xbe0eab93	-0.13932638
167	0x3d974680	0.07386494
168	0x3dead0b1	0.11465586
169	0x3cac6746	0.021045338
170	0xbd179d86	-0.03701546
171	0xbd38273b	-0.044959288
172	0xbc845467	-0.016153527
173	0xbc24b8aa	-0.010053793
174	0xbc3082e0	-0.0107733905
175	0xbd59aee5	-0.053145308
176	0x3bb5de0d	0.005550152
177	0x3cd91e6d	0.026503766
178	0x3d57f6ba	0.05272553
179	0xbd4377a3	-0.047721516
180	0x3c25dc48	0.01012332
181	0x3c9b4430	0.018953413
182	0x3d3ec304	0.0465727
183	0x3d38640a	0.04501728
184	0xb8c1474e	-9.216239e-05
185	0xbe02323b	-0.12714474
186	0x3dcea886	0.10090737
187	0x3d2f37ca	0.042777814
188	0x3ccf814f	0.025330214
189	0x3daded40	0.084925175
190	0xbcbc521c	-0.022988372
191	0x3d418aa1	0.047251347
192	0x3d42e7e0	0.047584414
193	0x3bae0c5e	0.005311533
194	0xbe30a109	-0.1724893
195	0xbd62b4df	-0.055348273
196	0x3cf4e901	0.029896261
197	0x3c6c3899	0.014417791
198	0xbc8ed808	-0.017436996
199	0x3dd629a8	0.10457164
200	0x3c445984	0.011984233
201	0x3d01b90e	0.031670623
202	0x3dd16e5d	0.10226128
203	0x3dac8e77	0.084256105
204	0xbc571d31	-0.013129518
205	0x3c60e750	0.013727024
206	0x3c8f8a0f	0.017521886
207	0xbd545aec	-0.051844522
208	0xbe2bebe3	-0.16789202
209	0x3cf5fd5e	0.030028041
210	0xbd57a680	-0.05264902
211	0xbacac385	-0.0015469646
212	0xbcc884d4	-0.0244774
213	0xbd85f39e	-0.06540607
214	0xbcc2c7cc	-0.023776911
215	0xbd73dd28	-0.059537083
216	0x3d478b79	0.048716996
217	0x3c4c40a0	0.01246658
218	0x3d00b9bf	0.03142714
219	0xbd9c1f82	-0.07623197
220	0xbddd46d2	-0.108045235
221	0xbda4756b	-0.08030208
222	0x3d5e7e7a	0.054319836
223	0xbce2eca3	-0.027700728
224	0xbbf2955b	-0.0074030585
225	0xbddbc57e	-0.10731028
226	0xbc27c020	-0.010238677
227	0xbceebc38	-0.029142484
228	0x3bf1ba05	0.0073769116
229	0xbbaa2710	-0.005192645
230	0xbb79e900	-0.0038133264
231	0x3d395b16	0.045252882
232	0xbd60307f	-0.05473375
233	0x3d8400a7	0.06445437
234	0xbb761e79	-0.0037554784
235	0x3d963309	0.07333953
236	0x3daccddf	0.08437704
237	0xbe0dc29f	-0.13843773
238	0xbdde795b	-0.108629905
239	0x3d0a86e5	0.03382005
240	0x3c6f16ea	0.0145928655
241	0xbd10acca	-0.035321034
242	0xbdad8c71	-0.08474053
243	0xbc3abcdb	-0.011397566
244	0xbcb0bf19	-0.021575497
245	0x3c40e6a0	0.011773735
246	0xbd8411bd	-0.06448696
247	0xbc2251b0	-0.009907171
248	0x3d0947e0	0.03351581
249	0x3cad3103	0.021141535
250	0x3d96b700	0.07359123
251	0xbcaa7e38	-0.020812139
252	0x3de4e94a	0.11177309
253	0xbdde06a2	-0.10841109
254	0xbc9ef69d	-0.019404704
255	0xbddd962a	-0.10819657

fc.2.bias f4 [12]
0	0xbd24faff	-0.04027843
1	0x3d4463bd	0.04794668
2	0x3d48f720	0.0490638
3	0xbd868a6f	-0.06569373
4	0xbd47729f	-0.048693296
5	0xbd5860de	-0.052826755
6	0xbcc5bbc7	-0.02413739
7	0xbd19f9ca	-0.037591733
8	0xbd39ef41	-0.045394186
9	0xbd87c8f6	-0.06630127
10	0x3c312014	0.010810871
11	0x3badcb2c	0.005303761
